matpred-2-3000.pth (torch, 648938 bytes, 84 tensors)

image_transform.0.layers.1.weight f4 [64]
0.28048754 0.23778492 0.25351444 0.0991181 0.2306693 0.20696299 0.14213073 0.16633698
0.12380353 0.08279004 0.073017545 0.21014981 0.14417888 0.22058588 0.089548215 0.13618653
0.30797735 0.12839392 0.20268115 0.07077758 0.31158203 0.17326395 0.09706556 0.13642626
0.15594175 0.22085439 0.18160126 0.11488465 0.15311386 0.13761191 0.13526174 0.25864664
0.06911521 0.28943443 0.18693776 0.08656695 0.15283306 0.08873561 0.28697854 0.10749453
0.09624555 0.31471562 0.14485593 0.24438639 0.12805262 0.22938754 0.21251148 0.2902569
0.14598262 0.10401598 0.15316422 0.2822852 0.13749945 0.24673425 0.2726421 0.17667465
0.3651064 0.27054277 0.29023337 0.07038213 0.15991059 0.21208988 0.13106513 0.12071802
00000000: 109c 8f3e e47d 733e a5cc 813e 6efe ca3d
00000010: 9334 6c3e 1bee 533e b88a 113e 3e54 2a3e
00000020: b58c fd3d d38d a93d 398a 953d 8331 573e
00000030: a1a3 133e 44e1 613e 0e65 b73d 7b74 0b3e
00000040: 35af 9d3e b279 033e a68b 4f3e d6f3 903d
00000050: ae87 9f3e 1b6c 313e 4fca c63d 53b3 0b3e
00000060: 32af 1f3e a727 623e aef5 393e a548 eb3d
00000070: e1c9 1c3e 23ea 0c3e 0e82 0a3e 556d 843e
00000080: 468c 8d3d c030 943e 9d6c 3f3e 034a b13d
00000090: 4580 1c3e 04bb b53d daee 923e 1826 dc3d
000000a0: 631c c53d 6822 a13e 1d55 143e 6d40 7a3e
000000b0: 3a20 033e 91e4 6a3e 9c9c 593e 8d9c 943e
000000c0: 787c 153e 5506 d53d 15d7 1c3e b087 903e
000000d0: a8cc 0c3e e7a7 7c3e bf97 8b3e 33ea 343e
000000e0: 3aef ba3e 9584 8a3e 7899 943e 8224 903d
000000f0: 9abf 233e 172e 593e f035 063e 023b f73d

image_transform.0.layers.1.bias f4 [64]
0.11737316 -0.014365062 0.0709671 -0.07429386 0.15360959 -0.041949335 0.066029415 -0.0055658296
-0.06705755 -0.057006914 0.028655428 -0.080466546 -0.017070573 -0.02458138 -0.060034674 -0.023970375
0.2004959 -0.014461352 -0.012827759 -0.0414001 0.05936568 -0.010399841 -0.017466554 -0.0016654821
-0.073650226 -0.05787625 0.12614489 -0.013535958 -0.006625215 0.010339908 0.098882705 0.21030176
-0.041487746 -0.013432035 -0.019898355 -0.074663974 -0.027677517 -0.05727475 -0.1314735 0.05901655
-0.109047875 -0.06880706 -0.026751386 0.010157546 -0.016560102 -0.038958333 0.028324118 0.1414296
-0.004428961 -0.071722426 -0.011605817 0.10845076 -0.14533843 0.030341126 0.09178022 0.011201781
-0.19989696 -0.011011077 -0.014039566 -0.07521491 0.11877277 -0.054895006 -0.010707279 -0.04846548
00000000: 5761 f03d 705b 6bbc 3357 913d 6127 98bd
00000010: d54b 1d3e 11d3 2bbd 6e3a 873d 9061 b6bb
00000020: 7855 89bd 1580 69bd cabe ea3c a5cb a4bd
00000030: 96d7 8bbc e45e c9bc ebe6 75bd 855d c4bc
00000040: cc4e 4d3e 4eef 6cbc 852b 52bc 2793 29bd
00000050: 6d29 733d 1864 2abc 0516 8fbc 4e4c daba
00000060: eed5 96bd a60f 6dbd 202c 013e ecc5 5dbc
00000070: 5518 d9bb b868 293c 0483 ca3d 5859 573e
00000080: 0eef 29bd 0a12 5cbc e001 a3bc 6de9 98bd
00000090: f6bb e2bc ee98 6abd fda0 06be 57bb 713d
000000a0: 7e54 dfbd b7ea 8cbd b925 dbbc d66b 263c
000000b0: 0da9 87bc c692 1fbd fb07 e83c ecd2 103e
000000c0: d120 91bb 35e3 92bd 5326 3ebc 6f1b de3d
000000d0: 99d3 14be f48d f83c 45f7 bb3d ad87 373c
000000e0: cab1 4cbe ce67 34bc 3506 66bc 460a 9abd
000000f0: 233f f33d 96d9 60bd 956d 2fbc bd83 46bd

image_transform.0.layers.1.running_mean f4 [64]
-0.013576933 -0.016520934 -0.017199712 0.010203189 -0.018221013 -0.020242658 0.013693068 0.01374114
-0.0070028836 -0.008856929 -0.007784878 -0.018259397 0.012879729 -0.012268063 -0.011212045 0.011003841
-0.013303858 0.011197376 -0.010373575 0.008026044 -0.01727298 0.012246256 0.009429327 0.012568403
-0.017053891 -0.011125732 0.014437344 0.0102412505 -0.0077055143 0.012810516 0.01383888 -0.012425323
0.013849737 -0.016425774 0.014349792 -0.012082891 0.015056381 -0.0073399562 -0.02713986 -0.0063058753
0.008956 -0.018575544 -0.009944616 -0.013958486 -0.009787155 -0.013086555 -0.008133128 -0.01577604
-0.0057917694 -0.008131238 0.012840447 -0.008227244 0.024205815 -0.012532385 -0.010853781 0.017624874
-0.031176604 -0.016356422 -0.014079985 -0.011525129 0.011924013 -0.01134404 0.009121552 -0.007329716
00000000: c971 5ebc e956 87bc 69e6 8cbc 472b 273c
00000010: 3c44 95bc eed3 a5bc e458 603c 8522 613c
00000020: 7278 e5bb a71c 11bc 4a18 ffbb bb94 95bc
00000030: 8005 533c fcff 48bc bab2 37bc 7449 343c
00000040: 6df8 59bc 3375 373c edf5 29bc ab7f 033c
00000050: 1180 8dbc 85a4 483c 777d 1a3c b4eb 4d3c
00000060: 9ab4 8bbc b448 36bc 9c8a 6c3c ebca 273c
00000070: 8a7e fcbb 33e3 513c 78bc 623c 9593 4bbc
00000080: 02ea 623c 588f 86bc 641b 6b3c 51f7 45bc
00000090: 0aaf 763c 0484 f0bb 6954 debc 84a1 cebb
000000a0: 30bc 123c bd2b 98bc beee 22bc 22b2 64bc
000000b0: 4e5a 20bc fd68 56bc d040 05bc c13c 81bc
000000c0: e2c8 bdbb e238 05bc bd60 523c 90cb 06bc
000000d0: 464b c63c a254 4dbc 0fd4 31bc 0a62 903c
000000e0: 1466 ffbc e7fd 85bc bdaf 66bc e5d3 3cbc
000000f0: ef5c 433c 5adc 39bc 9072 153c 1d2e f0bb

image_transform.0.layers.1.running_var f4 [64]
0.0009786488 0.0013834459 0.0018742825 0.0005207811 0.0021163581 0.0020195264 0.0009702076 0.0009714297
0.0002523958 0.00039800114 0.0003751381 0.0016628151 0.00082169793 0.000956146 0.0006534772 0.00060947554
0.000876354 0.00063028856 0.00053100503 0.00038923882 0.0015058705 0.00080192665 0.00045242565 0.00080208894
0.0014594413 0.0006228161 0.001030094 0.00052660046 0.0003086078 0.0008064307 0.0009571175 0.0007811556
0.0010638926 0.0013709578 0.0010603744 0.0007509252 0.0011353677 0.00029855815 0.0042723515 0.00037196305
0.0007395048 0.0017354966 0.00048684687 0.00097158423 0.00048534895 0.0008586952 0.0003492168 0.0016281835
0.0001667601 0.00032669114 0.00082553114 0.00034362896 0.0030284785 0.0007893037 0.0006236519 0.0015751893
0.0055403686 0.0013714773 0.0009990404 0.0006667945 0.000708026 0.0006882864 0.00041693382 0.0002665305
00000000: 0146 803a be54 b53a 7caa f53a 0785 083a
00000010: 99b2 0a3b 085a 043b 8855 7e3a 8ba7 7e3a
00000020: fe53 8439 cfaa d039 2fae c439 d1f2 d93a
00000030: 3767 573a dfa5 7a3a 1d4e 2b3a 36c5 1f3a
00000040: 1fbb 653a f339 253a 2533 0b3a c012 cc39
00000050: a160 c53a 6338 523a 8b33 ed39 4743 523a
00000060: b94a bf3a 7b44 233a 3804 873a 8f0b 0a3a
00000070: a3cc a139 a666 533a 11e7 7a3a 77c6 4c3a
00000080: 5072 8b3a b6b1 b33a 43fc 8a3a bdd9 443a
00000090: 9ed0 943a cc87 9c39 15ff 8b3b 0904 c339
000000a0: 54db 413a 9a79 e33a 7b3f ff39 eab1 7e3a
000000b0: 6f76 fe39 0f1a 613a 1617 b739 c668 d53a
000000c0: 53dc 2e39 be47 ab39 7568 583a 1929 b439
000000d0: 7079 463b 46e9 4e3a 927c 233a 9576 ce3a
000000e0: fb8b b53b 24c3 b33a 3cf2 823a d2cb 2e3a
000000f0: d29a 393a 1e6e 343a e997 da39 1ebd 8b39

image_transform.1.weight_units.1.weight f4 [64]
0.13241152 0.12883486 0.13701987 0.12923992 0.15967037 0.12461122 0.13658978 0.12186169
0.14651969 0.14106056 0.14433827 0.14213784 0.1263157 0.13040362 0.12047935 0.17902237
0.12628062 0.12137268 0.12240053 0.17775851 0.12925677 0.12711272 0.1175694 0.13574977
0.20144345 0.11248577 0.112623066 0.12880439 0.12963574 0.14870775 0.12378786 0.09022339
0.1324901 0.13887806 0.12671381 0.1312863 0.122762896 0.11739987 0.08580217 0.14084436
0.13766666 0.13036047 0.22056684 0.12055421 0.14261338 0.1340441 0.14275268 0.12021375
0.15009849 0.13214436 0.14780417 0.14807472 0.13171747 0.15833025 0.13884558 0.13558419
0.12641084 0.11524822 0.15047613 0.11963903 0.13404752 0.12380758 0.140196 0.13056107
00000000: e396 073e 49ed 033e f04e 0c3e 7857 043e
00000010: a180 233e 2b34 ff3d 31de 0b3e 9f92 f93d
00000020: 4209 163e 2e72 103e 69cd 133e 958c 113e
00000030: e758 013e 8788 053e e1bd f63d a451 373e
00000040: b54f 013e 3d92 f83d 21ad fa3d 5406 363e
00000050: e35b 043e d629 023e 3ac8 f03d fd01 0b3e
00000060: 3147 4e3e f05e e63d eca6 e63d 4ce5 033e
00000070: 3bbf 043e d846 183e 7d84 fd3d 0ac7 b83d
00000080: 7cab 073e 0d36 0e3e 44c1 013e ea6f 063e
00000090: 1d6b fb3d 586f f03d 0cb9 af3d 8139 103e
000000a0: 7df8 0c3e 377d 053e 46dc 613e 20e5 f63d
000000b0: 3e09 123e db42 093e c22d 123e a032 f63d
000000c0: 6bb3 193e da50 073e fa59 173e e6a0 173e
000000d0: f2e0 063e 5321 223e 892d 0e3e 95d6 0a3e
000000e0: d871 013e 4207 ec3d 6a16 1a3e 4f05 f53d
000000f0: c143 093e d48e fd3d 8a8f 0f3e cdb1 053e

image_transform.1.weight_units.1.bias f4 [64]
0.01697128 0.0012043414 -0.023489337 -0.009197349 0.0029567925 -0.02156697 0.03304373 0.009816831
0.06693999 0.020487126 -0.031649552 0.027852492 -0.019118289 -0.057348408 0.031827018 -0.00043138894
0.0031092863 -0.026807697 0.00017581365 -0.026349034 0.002356385 -0.006095654 -0.0038724772 0.012047372
0.04697056 -0.048507072 -0.015951108 0.00182094 -0.035369236 -0.09032211 0.005287389 0.014493383
0.03223452 -0.048278894 0.027173005 -0.04088604 -0.05005839 0.016380759 0.044893645 -0.04936903
-0.031256597 -0.037295308 -0.015403595 -0.008417378 0.009402325 -0.0011427706 -0.011231347 0.0043667997
-0.026550904 0.017277224 -0.02855548 -0.022376565 0.009465231 -0.033667482 0.006589813 -0.03437861
-0.03033699 -0.05654041 0.023172826 0.0047272565 -0.052948605 0.0008521269 -0.012699884 -0.019553034
00000000: 5b07 8b3c feda 9d3a b66c c0bc 7ab0 16bc
00000010: bfc6 413b 37ad b0bc dd58 073d c6d6 203c
00000020: d517 893d 9ed4 a73c f6a2 01bd e92a e43c
00000030: f59d 9cbc 2ae6 6abd 0c5d 023d 0b2c e2b9
00000040: 2bc5 4b3b d19b dbbc 9e5a 3839 eed9 d7bc
00000050: 956d 1a3b 0dbe c7bb 63c9 7dbb 5762 453c
00000060: 3464 403d 5aaf 46bd e6ab 82bc 9bac ee3a
00000070: 55df 10bd ccfa b8bd d541 ad3b a775 6d3c
00000080: 5808 043d 17c0 45bd ec99 de3c 1f78 27bd
00000090: 070a 4dbd f130 863c 66e2 373d 2e37 4abd
000000a0: eb06 00bd f7c2 18bd 5c5f 7cbc 0be9 09bc
000000b0: 360c 1a3c 05c9 95ba af03 38bc 5f17 8f3b
000000c0: 4881 d9bc f788 8d3c 2fed e9bc 0f4f b7bc
000000d0: 0e14 1b3c eae6 09bd 5cef d73b 96d0 0cbd
000000e0: 4785 f8bc eb96 67bd f0d4 bd3c 1ae7 9a3b
000000f0: a3e0 58bd 4561 5f3a 2d13 50bc af2d a0bc

image_transform.1.weight_units.1.running_mean f4 [64]
0.0022000105 -0.0007039367 -0.00064298284 -0.0014836226 -0.0031520627 0.00014079367 0.0021611857 0.0008331973
-0.0011488454 -0.0016170279 -0.0014190525 0.0022045216 0.00308886 0.0045186724 -0.00048291474 0.0031768065
-0.0014417195 0.00061739906 -0.0014215263 0.009748008 -0.0014517698 0.00075347984 0.0017928226 -0.0068032616
-0.00176682 -0.0004643994 -0.0004509708 0.00094910926 0.0017513317 0.005298397 -0.0023397203 -0.006122587
0.0012146306 -6.536605e-05 0.0012392228 -0.00039911814 -0.004498878 -0.00088789425 -0.0025026572 -0.0006769838
0.0039843097 -0.0007954221 0.013184521 -0.000855508 0.0017311829 0.0016677438 0.00023291066 -0.00046657363
0.0035022763 0.0009729363 0.0027983477 0.0011754859 -0.0013510931 0.0037044159 -0.0035732985 -7.285587e-05
0.0017202968 -0.004014143 -0.0004482613 0.00056078203 0.0037702771 0.0008742802 -0.0003122071 0.00035051254
00000000: 0d2e 103b 6488 38ba d98d 28ba 1d76 c2ba
00000010: d692 4ebb 03a2 1339 aea2 0d3b ed6a 5a3a
00000020: db94 96ba 74f2 d3ba 80ff b9ba bc79 103b
00000030: 796e 4a3b 5f11 943b b82f fdb9 f831 503b
00000040: 14f8 bcba f3d8 213a 8252 baba 1cb6 1f3c
00000050: 5049 beba 2d85 453a 25fd ea3a e5ed debb
00000060: a494 e7ba a27a f3b9 4770 ecb9 a5cd 783a
00000070: f18c e53a 2d9e ad3b fe55 19bb fb9f c8bb
00000080: 3d34 9f3a 2215 89b8 6b6d a23a bb40 d1b9
00000090: 536b 93bb 93c1 68ba 9f03 24bb 9d77 31ba
000000a0: d08e 823b e083 50ba e403 583c 2c44 60ba
000000b0: dce8 e23a 3298 da3a 7b39 7439 749e f4b9
000000c0: 7286 653b a60c 7f3a 7c64 373b c312 9a3a
000000d0: 2917 b1ba c9c5 723b 002e 6abb 33ca 98b8
000000e0: 957b e13a 1289 83bb 9d04 ebb9 7201 133a
000000f0: c116 773b f32f 653a baaf a3b9 ffc4 b739

image_transform.1.weight_units.1.running_var f4 [64]
2.0916657e-05 6.2318336e-06 1.4887938e-05 3.7993104e-06 3.5249966e-05 2.036488e-06 1.3002772e-05 4.3408604e-06
4.3403485e-05 4.0261864e-05 2.4930136e-05 1.9326684e-05 3.2838143e-06 4.2978227e-05 9.59232e-06 3.5839403e-05
2.6749863e-06 3.0895812e-06 1.4571605e-05 7.990196e-05 1.2803827e-06 7.999855e-06 6.96949e-06 8.2404595e-06
1.9365002e-06 2.153774e-05 1.8293851e-05 1.7720312e-06 2.7046026e-05 8.0439844e-05 7.7469406e-07 9.93745e-05
1.0755619e-05 6.111789e-05 1.7010363e-05 6.960906e-05 8.317183e-06 1.8702553e-06 7.975908e-06 8.854947e-05
3.51896e-05 6.703982e-05 2.027039e-05 3.1845652e-06 4.2718366e-05 5.175208e-06 8.738163e-06 4.594902e-06
2.0124939e-05 5.684001e-06 1.2454922e-05 8.064326e-06 8.487498e-06 7.079592e-05 6.092266e-06 5.9856637e-05
5.673439e-06 9.250874e-06 2.0845298e-06 2.7122408e-06 5.2373052e-06 6.273728e-07 4.081955e-06 1.8791457e-05
00000000: 2e76 af37 0b1b d136 35c7 7937 a8f7 7e36
00000010: 5dd9 1338 99aa 0836 7b26 5a37 b5a7 9136
00000020: 230c 3638 d9de 2838 0f21 d137 bd1f a237
00000030: 805f 5c36 8543 3438 b3ee 2037 4452 1638
00000040: ea83 3336 9a56 4f36 9178 7437 0a91 a738
00000050: 9dd9 ab35 1e37 0637 77db e936 8140 0a37
00000060: d2f4 0136 f2ab b437 bf75 9937 87d6 ed35
00000070: e6e0 e237 d0b1 a838 92f4 4f35 4767 d038
00000080: 0873 3437 6b2c 8038 7ab1 8e37 14fb 9138
00000090: 078a 0b37 7c05 fb35 44d0 0537 a2b3 b938
000000a0: 8c98 1338 bb97 8c38 550a aa37 6ab6 5536
000000b0: 7f2c 3338 b3a6 ad36 209a 1237 e82d 9a36
000000c0: fad1 a837 32b9 be36 7cf5 5037 044c 0737
000000d0: 8765 0e37 4578 9438 2b6c cc36 930e 7b38
000000e0: 785e be36 3434 1b37 f3e3 0b36 f103 3636
000000f0: 1cbc af36 bb68 2835 baf7 8836 59a2 9d37

image_transform.1.weight_units.4.weight f4 [64]
0.16173568 0.10028175 0.10600673 0.15234329 0.12704082 0.060605966 0.110234685 0.11547385
0.1268976 0.09144171 0.079482436 0.11125918 0.071727894 0.08226557 0.10931682 0.18042083
0.15281828 0.1319848 0.094258904 0.12090554 0.1711873 0.16410992 0.13325398 0.122142285
0.07024394 0.15470001 0.0752498 0.1506426 0.11690496 0.073052384 0.12070057 0.09270426
0.16704646 0.11651947 0.15370356 0.11175187 0.16374862 0.13449848 0.07112591 0.08495584
0.18973263 0.16679777 0.124454446 0.11321288 0.083139144 0.13884707 0.0671237 0.09615126
0.12905723 0.10482173 0.065528154 0.12749892 0.12767383 0.17816226 0.097047366 0.06009709
0.18762557 0.081592314 0.080442145 0.12287399 0.0568732 0.1150411 0.108719446 0.123008
00000000: 0a9e 253e 8560 cd3d 0e1a d93d e1ff 1b3e
00000010: fd16 023e f63d 783d b9c2 e13d 8e7d ec3d
00000020: 72f1 013e cb45 bb3d b0c7 a23d dadb e33d
00000030: 13e6 923d da7a a83d 7fe1 df3d 3dc0 383e
00000040: 657c 1c3e 0627 073e d00a c13d 539d f73d
00000050: b94b 2f3e 6e0c 283e bb73 083e bc25 fa3d
00000060: 0edc 8f3d ae69 1e3e 911c 9a3d 0e42 1a3e
00000070: de6b ef3d 7d9c 953d dc31 f73d bbdb bd3d
00000080: 3a0e 2b3e c3a1 ee3d 7764 1d3e 2ade e43d
00000090: b8ad 273e f8b9 093e 76aa 913d 54fd ad3d
000000a0: 4549 423e 09cd 2a3e f9e1 fe3d 28dc e73d
000000b0: db44 aa3d ed2d 0e3e 2778 893d f4ea c43d
000000c0: 9427 043e c6ac d63d a033 863d 148f 023e
000000d0: eebc 023e 2b70 363e c5c0 c63d 5e28 763d
000000e0: eb20 403e df19 a73d dabe a43d 5ca5 fb3d
000000f0: dff3 683d ab9a eb3d 4da8 de3d 9eeb fb3d

image_transform.1.weight_units.4.bias f4 [64]
-0.056151986 0.0049945656 -0.10734641 0.056758706 0.052872337 -0.043786418 0.09656372 0.08709536
-0.028916825 -0.044278383 0.042361315 -0.010678023 0.009248514 -0.030377066 0.04018058 0.08278314
-0.08254817 0.0421779 -0.030151686 0.025307545 0.02247753 0.13301575 0.018127535 0.044930182
-0.008312459 -0.046032194 0.07431993 0.08624996 -0.018545689 -0.021430476 0.0699789 -0.055066176
0.056887485 -0.021373432 0.13533884 0.011627518 0.11590176 0.011868787 -0.038464196 -0.021756826
-0.07056373 0.036459565 -0.061230417 -0.015036418 -0.02269788 -0.058449328 -0.036274575 -0.06850721
0.0021925846 0.0030539187 0.06078899 0.04695877 0.09434438 0.030040707 0.080925494 -0.04696088
0.012673987 -0.025823254 -0.032182496 -0.038362082 -0.058488622 -0.031600777 0.049377352 -0.022315102
00000000: a0ff 65bd 74a9 a33b 6fd8 dbbd d17b 683d
00000010: aa90 583d 6359 33bd 33c3 c53d 0d5f b23d
00000020: fae2 ecbc 405d 35bd 0f83 2d3d e0f2 2ebc
00000030: 1487 173c 53d9 f8bc 6494 243d 358a a93d
00000040: 040f a9bd bcc2 2c3d ab00 f7bc c551 cf3c
00000050: cc22 b83c 4835 083e 3280 943c b608 383d
00000060: fb30 08bc 418c 3cbd 0c35 983d d2a3 b03d
00000070: 21ed 97bc f78e afbc 1951 8f3d 128d 61bd
00000080: da02 693d 5617 afbc 4496 0a3e 5881 3e3c
00000090: e75d ed3d 4d75 423c a28c 1dbd 5f3b b2bc
000000a0: b883 90bd a056 153d bfcc 7abd 4f5b 76bc
000000b0: e8f0 b9bc 9068 6fbd a694 14bd 824d 8cbd
000000c0: 77b1 0f3b 4124 483b e0fd 783d d757 403d
000000d0: a037 c13d ee17 f63c 44bc a53d 0d5a 40bd
000000e0: 8ea6 4f3c 4a8b d3bc cbd1 03bd 8f21 1dbd
000000f0: c491 6fbd d16f 01bd e83f 4a3d 29ce b6bc

image_transform.1.weight_units.4.running_mean f4 [64]
-0.0033861308 0.0042702635 0.0060303444 -0.004885082 -0.0065550115 -0.0007034161 -0.005377868 -0.004538922
0.00386839 -0.0042754714 0.0016531866 -0.0012686427 -0.0047724894 0.0040573142 -0.0033466604 0.0008921061
-0.0037868402 0.00076353084 0.00093804474 -0.003665475 -0.00253308 -0.0076509323 -0.00030784504 -0.002892839
0.00049509254 -0.000117244526 -0.004795513 -0.0040183417 -0.004295527 -0.0032385592 -0.0064014727 0.007502944
-0.0012233439 0.00074473245 0.0016565726 -0.0027707687 0.001845417 0.0008779591 0.00416775 0.00244246
-0.0017777912 -0.0011537818 -0.0029432222 -0.0014583109 -0.0028702992 -0.0025083849 0.002506772 0.0052641067
-0.0025783796 -0.0026100883 -0.0039058523 -0.004750567 -0.0027681363 -0.0023368306 -0.006713539 -0.0037890805
-4.679662e-05 0.0023652045 0.0036266954 -0.00026533773 -0.0014359921 0.0012574733 -0.002400581 0.0031980965
00000000: d9e9 5dbb 91ed 8b3b 329a c53b 0a13 a0bb
00000010: 6ccb d6bb 7565 38ba d438 b0bb 3dbb 94bb
00000020: d184 7d3b 4119 8cbb bdaf d83a 9648 a6ba
00000030: 8b62 9cbb 38f3 843b a553 5bbb 3adc 693a
00000040: a32c 78bb b027 483a 1ee7 753a 7738 70bb
00000050: 0802 26bb acb4 fabb 4366 a1b9 c995 3dbb
00000060: 19c9 013a 2de1 f5b8 ae23 9dbb 4bac 83bb
00000070: 7ec1 8cbb 023e 54bb 72c3 d1bb 42db f53b
00000080: 9c58 a0ba 263a 433a 5a21 d93a c995 35bb
00000090: ebe1 f13a d626 663a 9f91 883b ae11 203b
000000a0: c604 e9ba 7e3a 97ba 13e3 40bb cb24 bfba
000000b0: a11b 3cbb b763 24bb a848 243b 877e ac3b
000000c0: 08fa 28bb 040e 2bbb 54f9 7fbb a5aa 9bbb
000000d0: 9f69 35bb 8325 19bb 3ffd dbbb 3952 78bb
000000e0: 7d47 44b8 8c01 1b3b daad 6d3b 071d 8bb9
000000f0: e637 bcba cdd1 a43a 1153 1dbb 2897 513b

image_transform.1.weight_units.4.running_var f4 [64]
3.21778e-05 5.0186965e-05 0.00014128693 4.6178007e-05 0.00012484235 4.3116874e-05 6.961701e-05 5.9442085e-05
1.7853947e-05 3.4675522e-05 1.8161028e-05 6.7828287e-06 6.0285893e-05 4.5548004e-05 7.5467986e-05 2.380916e-05
3.869466e-05 2.5876954e-05 2.3504783e-05 5.1421976e-05 4.508496e-05 0.000117599404 1.8744602e-05 7.5709024e-05
5.424708e-06 4.22477e-05 0.00011041026 6.379939e-05 3.0107005e-05 3.1337247e-05 6.639442e-05 0.00013523204
1.65118e-05 4.9181177e-05 1.7932332e-05 1.3593756e-05 1.6127125e-05 7.3777305e-06 4.6253183e-05 5.1610183e-05
3.0238181e-05 3.054067e-05 1.3405598e-05 3.4724573e-05 6.1537207e-06 2.971966e-05 3.0396586e-05 0.0001082162
2.0749847e-05 4.013198e-05 4.1625226e-05 0.00013238561 9.775819e-05 3.224287e-05 0.00010798679 2.292205e-05
3.1526564e-05 2.41886e-05 2.5311849e-05 1.9284931e-05 8.91564e-06 1.1061216e-05 6.5773864e-05 1.9698262e-05
00000000: a6f6 0638 d87f 5238 6c26 1439 42af 4138
00000010: 1de8 0239 64d8 3438 59ff 9138 7451 7938
00000020: 0fc5 9537 8f70 1138 8358 9837 0e98 e336
00000030: 7cdb 7c38 cc0a 3f38 9144 9e38 c8b9 c737
00000040: 134c 2238 5612 d937 232c c537 edad 5738
00000050: 9b19 3d38 b39f f638 ba3d 9d37 f9c5 9e38
00000060: e305 b636 1f33 3138 0f8c e738 09cc 8538
00000070: 4d8e fc37 1d70 0338 3c3d 8b38 13cd 0d39
00000080: d282 8a37 e347 4e38 646d 9637 bd10 6437
00000090: bd48 8737 398e f736 faff 4138 0378 5838
000000a0: 00a8 fd37 cb18 0038 9be8 6037 3aa5 1138
000000b0: 0f7c ce36 7c4e f937 2cfc fe37 21f2 e238
000000c0: f50f ae37 6353 2838 bf96 2e38 fed0 0a39
000000d0: 8703 cd38 853c 0738 f776 e238 ba48 c037
000000e0: 643b 0438 9fe8 ca37 c854 d437 13c6 a137
000000f0: 6294 1537 9093 3937 13f0 8938 b23d a537

image_transform.2.weight_units.1.weight f4 [64]
0.080938786 0.1846587 0.21762045 0.15071619 0.11543229 0.15271713 0.17020155 0.12456435
0.14992379 0.22794873 0.12086387 0.11256283 0.14956231 0.12243732 0.13194923 0.13337426
0.15865666 0.123722166 0.11194441 0.11887435 0.116873085 0.11311843 0.10618178 0.15736529
0.18898696 0.13688949 0.12837824 0.1535949 0.11475116 0.11687118 0.12164067 0.17375429
0.13064493 0.09289923 0.122082904 0.13397996 0.12948081 0.11434177 0.12215881 0.12887178
0.14588065 0.12153451 0.12379936 0.12539408 0.13736948 0.16355719 0.13678041 0.11075338
0.18595251 0.11463936 0.11148832 0.14931862 0.11744081 0.10146149 0.14789647 0.14372122
0.10845897 0.1289998 0.13511114 0.13165781 0.13498981 0.20105675 0.12553598 0.12750915
00000000: 3cc3 a53d 2c17 3d3e e5d7 5e3e 5855 1a3e
00000010: c467 ec3d e161 1c3e 5149 2e3e 981b ff3d
00000020: 9f85 193e 646b 693e 7a87 f73d 5787 e63d
00000030: dd26 193e 6bc0 fa3d b31d 073e 4393 083e
00000040: e476 223e 0c62 fd3d 1c43 e53d 6574 f33d
00000050: 285b ef3d a3aa e73d d575 d93d 5e24 213e
00000060: cc85 413e c22c 0c3e 9675 033e fb47 1d3e
00000070: a802 eb3d 285a ef3d be1e f93d a5ec 313e
00000080: c9c7 053e f441 be3d 9a06 fa3d 0b32 093e
00000090: 9e96 043e 052c ea3d 662e fa3d f7f6 033e
000000a0: bd61 153e 16e7 f83d 858a fd3d 4e67 003e
000000b0: 96aa 0c3e 897b 273e 2a10 0c3e abd2 e23d
000000c0: 566a 3e3e 0ac8 ea3d fd53 e43d fbe6 183e
000000d0: cf84 f03d 0bcb cf3d 2c72 173e a82b 133e
000000e0: bd1f de3d 8618 043e 935a 0a3e 4ed1 063e
000000f0: c53a 0a3e d2e1 4d3e 818c 003e c291 023e

image_transform.2.weight_units.1.bias f4 [64]
0.014351311 -0.02304038 -0.087852165 -0.00051347876 0.0017121792 -0.051182065 0.06501836 0.006187005
-0.012858879 0.03300619 -0.017423818 -0.057237267 -0.0025507414 -0.012197326 -0.022266548 -0.008149035
-0.023352548 0.0048049893 0.012350779 -0.007956709 -0.025611607 -0.0075986693 -0.042293455 0.033478018
-0.05071161 -0.0146257635 -0.037719116 -0.0015600553 -0.049103733 -0.022782087 0.002828341 0.020405577
0.010263298 -0.04761224 0.0019176521 0.024555534 0.006710772 -0.0015533693 -0.00045005349 0.014156056
-0.08943581 -0.011278972 -0.024174822 0.00590613 0.027179709 0.052426305 0.0132070985 -0.049306523
-0.12398095 0.01599116 -0.031193016 -0.01757223 0.010699114 -0.030373752 -0.03180981 0.021337403
0.017686814 -0.0032936195 0.010903643 -0.012256682 0.008627273 0.06661456 0.032596957 -0.0008895147
00000000: c321 6b3c 2ebf bcbc d6eb b3bd fa9a 06ba
00000010: 336b e03a 49a4 51bd 5928 853d 5cbc ca3b
00000020: 0cae 52bc 8031 073d 65bc 8ebc a071 6abd
00000030: 572a 27bb 4bd7 47bc 5668 b6bc 8883 05bc
00000040: d84d bfbc 2c73 9d3b ec5a 4a3c db5c 02bc
00000050: 6fcf d1bc 42fe f8bb e73b 2dbd 3f20 093d
00000060: fab6 4fbd e6a0 6fbc 5c7f 1abd c57a ccba
00000070: ff20 49bd 80a1 babc b05b 393b 9929 a73c
00000080: 6427 283c 0d05 43bd ba59 fb3a b028 c93c
00000090: 09e6 db3b 6d9a cbba 28f5 ebb9 cdee 673c
000000a0: 1f2a b7bd 70cb 38bc 470a c6bc 3688 c13b
000000b0: fba7 de3c f7bc 563d 9662 583c a3f5 49bd
000000c0: b9e9 fdbd e5ff 823c 7f88 ffbc a3f3 8fbc
000000d0: 564b 2f3c 60d2 f8bc 014b 02bd c7cb ae3c
000000e0: f0e3 903c c4d9 57bb 32a5 323c 40d0 48bc
000000f0: 6859 0d3c 376d 883d 6384 053d 522e 69ba

image_transform.2.weight_units.1.running_mean f4 [64]
-0.010465347 0.00040810375 0.0035818722 -0.0009357929 0.0026018706 0.004115291 0.0040072952 -0.0034075282
0.009181349 -0.0030585618 -0.0041924785 0.008235187 0.0028039303 0.0094825635 0.010328823 -0.0067814244
0.007497287 -0.00020433926 -0.0033292247 -0.00021966641 -0.002613303 0.0036736894 -0.0017793062 -1.1162634e-05
0.0030957563 0.00075258926 0.008885727 0.00058032613 0.0070788627 -0.005980139 0.00010184734 0.0027925698
-0.0019319794 -0.01188411 -0.001645911 -0.00744394 -0.0009428883 0.0014620076 0.00078978384 -0.002618164
-0.007980954 -0.00051216554 0.0034119687 -0.0032002407 -0.0042975955 0.0015239905 -0.0046461974 -0.0061829924
0.0039736577 -0.008157594 0.0068642017 0.0018884062 -0.00462596 0.005814581 0.00024523723 -0.0016164387
-0.009121397 -0.0035501544 -0.0018135636 -0.0022526702 -0.00028119748 0.0015592725 -0.0048816754 0.00012471821
00000000: d976 2bbc c2f6 d539 d8bd 6a3b 0050 75ba
00000010: 2584 2a3b 90d9 863b a14f 833b d650 5fbb
00000020: 5e6d 163c 2772 48bb 0f61 89bb e1ec 063c
00000030: 25c2 373b c15c 1b3c 393a 293c b636 debb
00000040: cdab f53b e743 56b9 1f2f 5abb 4156 66b9
00000050: f343 2bbb 48c2 703b 9c37 e9ba 2647 3bb7
00000060: 2ce2 4a3b 6949 453a 7195 113c 0721 183a
00000070: cef5 e73b 0bf5 c3bb e096 d538 8c03 373b
00000080: 793a fdba 92b5 42bc 9cbb d7ba 4bec f3bb
00000090: 2a2c 77ba d6a0 bf3a 7f09 4f3a 8195 2bbb
000000a0: 8cc2 02bc d942 06ba 569b 5f3b 21bb 51bb
000000b0: d8d2 8cbb a3c0 c73a 213f 98bb b39a cabb
000000c0: 7535 823b 6ea7 05bc 19ed e03b 6684 f73a
000000d0: 5d95 97bb 3e88 be3b 2f93 8039 afde d3ba
000000e0: e971 15bc b5a9 68bb 19b5 edba 89a1 13bb
000000f0: b06d 93b9 8160 cc3a 76f6 9fbb cac6 0239

image_transform.2.weight_units.1.running_var f4 [64]
1.8174087e-05 5.3694926e-06 1.8427392e-05 1.10897945e-05 2.8383374e-06 5.336119e-06 4.487756e-06 6.7790775e-06
7.95148e-06 8.166387e-06 8.854667e-06 7.4760583e-06 3.4646105e-06 5.7858333e-06 9.809156e-06 3.123548e-05
9.19106e-06 5.876342e-07 8.357886e-06 1.4672993e-06 9.51225e-06 1.8082633e-06 1.32659925e-05 4.0604173e-06
1.033387e-05 2.9184098e-06 9.522672e-06 7.7202985e-06 6.3351786e-06 9.985141e-06 1.9151432e-06 6.9379716e-06
1.8700536e-06 1.3069535e-05 1.1385398e-06 1.6886099e-05 1.5542181e-06 7.766443e-07 4.5719034e-07 2.5400486e-06
4.121156e-05 8.308808e-07 4.0939553e-06 4.5348856e-06 4.8147854e-06 5.019966e-06 7.229042e-06 1.081627e-05
1.0203643e-05 2.2797583e-05 5.9544404e-06 5.7656657e-06 1.12403395e-05 5.207927e-06 1.733192e-05 3.5471917e-06
2.507212e-05 2.125807e-06 2.8345844e-06 1.026426e-05 2.7324988e-06 6.7929113e-06 6.9992248e-06 3.4594307e-06
00000000: 8e74 9837 972b b436 8694 9a37 4e0e 3a37
00000010: 447a 3e36 ea0c b336 8895 9636 d577 e336
00000020: 5967 0537 5d02 0937 818e 1437 dada fa36
00000030: 8e81 6836 ee23 c236 0192 2437 d702 0338
00000040: 4d33 1a37 eabd 1d35 d938 0c37 05f0 c435
00000050: cd96 1f37 74b3 f235 0191 5e37 b83e 8836
00000060: a25f 2d37 e6d9 4336 91c3 1f37 6e86 0137
00000070: c592 d436 db85 2737 e985 0036 b9cc e836
00000080: 8dfe fa35 3a45 5b37 eecf 9835 9fa6 8d37
00000090: 879a d035 977a 5035 c373 f534 b475 2a36
000000a0: 93da 2c38 b209 5f35 cf5e 8936 5f2a 9836
000000b0: b18e a136 2e71 a836 ff90 f236 8777 3537
000000c0: 5030 2b37 703d bf37 41cc c736 b176 c136
000000d0: e494 3c37 c1bf ae36 0464 9137 4a0c 6e36
000000e0: f851 d237 16a9 0e36 ca39 3e36 a934 2c37
000000f0: f95f 3736 aaee e336 e2da ea36 9128 6836

image_transform.2.weight_units.4.weight f4 [64]
0.10805718 0.12217192 0.12276974 0.13631846 0.13265678 0.15891054 0.11190637 0.07749253
0.11705817 0.13966182 0.12790245 0.16182786 0.052992504 0.13064513 0.18433368 0.15424702
0.033607263 0.16984424 0.075225554 0.16459183 0.03425309 0.11114249 0.1601772 0.1173162
0.1138492 0.16051473 0.08770757 0.12238027 0.1107697 0.10137411 0.09734975 0.09686981
0.049231574 0.15252939 0.13885409 0.09986495 0.13092959 0.04499138 0.14087768 0.09766669
0.1616659 0.033601522 0.06636359 0.11550704 0.11049925 0.120255105 0.09561562 0.19531019
0.08709892 0.07453642 0.08639829 0.19006658 0.08766006 0.1124707 0.09777082 0.05008175
0.07786317 0.16054772 0.19247775 0.23488934 0.08703979 0.12279513 0.12448499 0.18669805
00000000: 154d dd3d 4635 fa3d b46e fb3d 1197 0b3e
00000010: 2ed7 073e 72b9 223e 2b2f e53d 67b4 9e3d
00000020: 32bc ef3d 8203 0f3e dcf8 023e 34b6 253e
00000030: ab0e 593d d6c7 053e f8c1 3c3e eef2 1d3e
00000040: c5a7 093d a6eb 2d3e db0f 9a3d c38a 283e
00000050: f84c 0c3d ac9e e33d 7e05 243e 7a43 f03d
00000060: c529 e93d f95d 243e 07a0 b33d 82a2 fa3d
00000070: 39db e23d 3b9d cf3d 4e5f c73d ae63 c63d
00000080: 0ca7 493d aa30 1c3e c42f 0e3e ff85 cc3d
00000090: 6812 063e e248 383d 3d42 103e 7905 c83d
000000a0: bf8b 253e c0a1 093d a2e9 873d f48e ec3d
000000b0: 6e4d e23d 4f48 f63d 1fd2 c33d 65ff 473e
000000c0: eb60 b23d 8da6 983d 96f1 b03d d0a0 423e
000000d0: 1e87 b33d 0a57 e63d 113c c83d 8522 4d3d
000000e0: ba76 9f3d 9f66 243e e318 453e d586 703e
000000f0: eb41 b23d 037c fb3d fdf1 fe3d c62d 3f3e

image_transform.2.weight_units.4.bias f4 [64]
0.0009400828 0.0038117277 -0.009185509 -0.018407278 -0.025969526 0.023388226 0.03347754 -0.049618613
0.0026091372 -0.031575214 -0.0004113284 0.03725196 -0.011561576 0.00085046253 -0.042658005 0.035882913
-0.045272183 0.00887622 -0.026499517 0.032237962 -0.04961537 0.03522527 0.043989915 0.019618826
0.014223488 0.045451075 0.022225058 0.036444392 -0.0012006916 0.010470898 0.03424371 -0.061759405
-0.027095221 0.037136022 -0.03835453 0.006963512 -0.032696918 -0.027125964 -0.012787385 0.0005331905
-0.042739257 -0.02110321 -0.044881042 0.032282874 -0.005718957 0.0039117304 -0.021494577 -0.020791344
0.0026039847 -0.013282713 -0.030706756 -0.03651091 -0.017896218 -0.0026505843 -0.0585908 0.051816426
-0.027501015 -0.008695431 0.026828786 0.012159052 0.02476155 0.0010073343 0.011953753 -0.0057981666
00000000: e46f 763a 2ece 793b d17e 16bc dcca 96bc
00000010: 0bbe d4bc aa98 bf3c bf1f 093d e33c 4bbd
00000020: 0ffe 2a3b 0355 01bd 90a7 d7b9 8395 183d
00000030: c46c 3dbc 93f1 5e3a 29ba 2ebd f6f9 123d
00000040: 536f 39bd 916d 113c 8415 d9bc f40b 043d
00000050: 7c39 4bbd 5f48 103d c52e 343d a9b7 a03c
00000060: a209 693c e82a 3a3d 5311 b63c b746 153d
00000070: 8660 9dba 218e 2b3c 2243 0c3d 6ef7 7cbd
00000080: ccf6 ddbc f11b 183d a419 1dbd 2c2e e43b
00000090: 34ed 05bd 4537 debc 2e82 51bc cfc5 0b3a
000000a0: 5c0f 2fbd a4e0 acbc 2fd5 37bd 0c3b 043d
000000b0: 1766 bbbb f92d 803b 6515 b0bc 9c52 aabc
000000c0: 9da7 2a3b bc9f 59bc bc8c fbbc 778c 15bd
000000d0: 179b 92bc 6db5 2dbb e8fc 6fbd 763d 543d
000000e0: cf49 e1bc 4877 0ebc 0bc8 db3c c336 473c
000000f0: bcd8 ca3c 8808 843a add9 433c 8cfe bdbb

image_transform.2.weight_units.4.running_mean f4 [64]
-0.0020034583 -0.0011787425 0.0010261859 0.00090943597 -0.00088030234 -0.0005817304 -0.0013355964 6.5011605e-05
-3.124341e-05 0.0019054327 0.0005960021 0.0009811999 0.00029736545 0.0002502288 0.00045330168 -0.002644528
0.00025685594 -0.0007445873 0.0012068906 0.0019631574 0.0008706644 -0.00029823906 -0.00262325 -0.0002355594
0.00016025119 0.000528013 -0.0014787525 0.0007055369 -0.0005059947 -0.001834553 -0.000941415 -0.0015991039
0.000624789 -0.00297141 0.00025620183 -0.00022672172 0.0014780848 -3.7058067e-05 -0.00040902087 -0.00052120915
-0.0015844902 0.00021799687 0.0005027101 -0.0025907413 -0.0003403301 -0.0004345965 0.000120486366 -0.0003202332
0.0005591901 0.00075842784 0.00024807395 -0.0014868717 0.00079700485 -0.00017736007 -0.00049334264 -0.00067407725
1.1189285e-05 -8.849312e-05 -0.0027538817 0.0009223768 -0.00115156 0.00064161234 -0.0004671338 0.0010141197
00000000: 744c 03bb 0980 9aba 1681 863a 3767 6e3a
00000010: 17c4 66ba 447f 18ba 2e0f afba d756 8838
00000020: 5b0b 03b8 b6bf f93a 063d 1c3a 9b9b 803a
00000030: b7e7 9b39 2431 8339 1fa9 ed39 d14f 2dbb
00000040: 9faa 8639 6830 43ba 8730 9e3a 51a8 003b
00000050: 4c3d 643a f85c 9cb9 d5ea 2bbb 7f00 77b9
00000060: 1a09 2839 5a6a 0a3a b3d2 c1ba c8f3 383a
00000070: bba4 04ba 6275 f0ba 4bc9 76ba 0699 d1ba
00000080: e1c8 233a fdbb 42bb d452 8639 26bc 6db9
00000090: 4cbc c13a cc6e 1bb8 da71 d6b9 c1a1 08ba
000000a0: abae cfba 1796 6439 4ec8 033a 6dc9 29bb
000000b0: 556e b2b9 8eda e3b9 a0ad fc38 f9e4 a7b9
000000c0: 9d96 123a 3bd1 463a ec0f 8239 23e3 c2ba
000000d0: 17ee 503a bbf9 39b9 aa53 01ba 8fb4 30ba
000000e0: 9db9 3b37 6295 b9b8 787a 34bb a9cb 713a
000000f0: f1ef 96ba e031 283a a3e9 f4b9 36ec 843a

image_transform.2.weight_units.4.running_var f4 [64]
8.346603e-06 2.2097308e-06 5.711181e-06 4.6327773e-06 1.1156798e-05 5.840004e-06 1.0546001e-05 2.774043e-06
7.412049e-06 3.7935664e-05 4.1517064e-06 8.572949e-06 3.8522116e-06 4.1827084e-06 1.4466216e-05 8.26993e-06
2.0962252e-06 1.1370724e-05 8.232476e-06 6.049596e-06 1.0440993e-05 1.5431508e-05 6.650238e-06 7.1591703e-06
2.563927e-06 7.75494e-06 1.7018572e-05 5.7397265e-06 5.336257e-06 7.3259584e-06 1.2270649e-05 8.851217e-06
3.6268248e-06 9.268809e-06 2.6309332e-05 2.929776e-06 2.742523e-05 1.6553901e-06 3.382516e-06 9.7117945e-06
9.414419e-06 1.5780914e-06 3.0404146e-06 1.5305684e-05 2.0792381e-06 4.660093e-06 3.4847694e-06 1.0305728e-05
2.6302687e-06 6.7837336e-06 8.924234e-06 1.2115714e-05 5.1988695e-06 7.074684e-06 5.5068335e-06 1.1971082e-05
2.9861653e-06 1.4652473e-05 1.0760209e-05 1.1684659e-05 1.26948335e-05 2.68232e-06 6.755065e-06 1.16933315e-05
00000000: 6308 0c37 e34a 1436 aca2 bf36 4173 9b36
00000010: 152e 3b37 41f5 c336 bbee 3037 b229 3a36
00000020: 04b5 f836 1c1d 1f38 e34e 8b36 89d4 0f37
00000030: 3f42 8136 3159 8c36 edb3 7237 14bf 0a37
00000040: e0ac 0c36 e3c4 3e37 371e 0a37 a2fd ca36
00000050: b92b 2f37 e972 8137 1c25 df36 ce38 f036
00000060: ee0f 2c36 371b 0237 1bc3 8e37 e097 c036
00000070: 190e b336 81d1 f536 09de 4d37 b07f 1437
00000080: 6064 7336 3b81 1b37 dcb2 dc37 2b9d 4436
00000090: 3c0f e637 c52e de35 2fff 6236 d7ef 2237
000000a0: 9ff2 1d37 cfce d335 ed09 4c36 b564 8037
000000b0: 0a89 0b36 e55d 9c36 e2db 6936 c4e6 2c37
000000c0: ac83 3036 d49f e336 4bb9 1537 9844 4b37
000000d0: f371 ae36 1363 ed36 57c7 b836 68d7 4837
000000e0: ee65 4836 e4d3 7537 bf86 3437 3a09 4437
000000f0: e5fb 5437 e801 3436 91a9 e236 7a2e 4437

feature_transform.0.layers.1.weight f4 [128]
0.09631382 0.23132794 0.16364045 0.15698647 0.2891372 0.10883414 0.026991827 0.31158265
0.09712317 0.16031155 0.16968885 0.14133371 0.16597077 0.051170915 0.11258811 0.25858882
0.14485513 0.31552565 0.31541675 0.119146675 0.22433172 0.22747698 0.336958 0.14714846
0.067152865 0.2945473 0.14113578 0.09246409 0.23492818 0.11370457 0.10477898 0.13688053
0.12275544 0.21256517 0.13346826 0.34388918 0.40982383 0.09343304 0.1324135 0.10023005
0.08759265 0.07730668 0.28042674 0.121920444 0.30275717 0.103466734 0.20575751 0.32177266
0.21646659 0.09253219 0.18393351 0.12151528 0.10512387 0.164023 0.19418141 0.10119771
0.24519797 0.35010326 0.123210944 0.13967195 0.24573061 0.12735534 0.12584056 0.38559172
0.16273424 0.10367512 0.119430706 0.24839948 0.10284856 0.31774205 0.10525101 0.30091465
0.10415751 0.10178453 0.20080538 0.13062069 0.11791645 0.08316195 0.122591555 0.10064676
0.32101825 0.10705616 0.28250325 0.3557949 0.13666308 0.16956776 0.060957473 0.42173824
0.11472142 0.111269966 0.14911571 0.10356295 0.26064095 0.10824625 0.12254205 0.102741055
0.12556784 0.24172968 0.16515109 0.32057616 0.3772616 0.15163563 0.1858654 0.106462136
0.32406807 0.4439416 0.13703728 0.16396174 0.106604464 0.3261368 0.13261655 0.35436392
0.08747881 0.094546296 0.2591153 0.119447 0.29902637 0.4927019 0.27532545 0.15942803
0.13256991 0.2888718 0.21387745 0.3003257 0.15280168 0.11976358 0.27165338 0.32395962
00000000: 2e40 c53d 3be1 6c3e 5d91 273e 10c1 203e
00000010: cb09 943e 6fe4 de3d f71d dd3c c387 9f3e
00000020: 83e8 c63d b628 243e eac2 2d3e c9b9 103e
00000030: 3ef4 293e 9898 513d 9894 e63d c165 843e
00000040: e754 143e 948c a13e 4e7e a13e 2c03 f43d
00000050: 37b7 653e baef 683e c285 ac3e 16ae 163e
00000060: 7187 893d e7ce 963e e685 103e d05d bd3d
00000070: 0391 703e f1dd e83d 5d96 d63d 692a 0c3e
00000080: 3467 fb3d afaa 593e e7ab 083e 3e12 b03e
00000090: 6ed4 d13e d259 bf3d 6897 073e 6a45 cd3d
000000a0: c663 b33d f752 9e3d 1894 8f3e 6db1 f93d
000000b0: fd02 9b3e 5ee6 d33d 19b2 523e 63bf a43e
000000c0: 6ba9 5d3e 8481 bd3d 1159 3c3e 01dd f83d
000000d0: 2f4b d73d a5f5 273e 7ed7 463e bf40 cf3d
000000e0: 2d15 7b3e bc40 b33e 0556 fc3d 2a06 0f3e
000000f0: cea0 7b3e 7069 023e 59dc 003e 476c c53e
00000100: cea3 263e 9f53 d43d 1698 f43d 6f5c 7e3e
00000110: 44a2 d23d 16af a23e d78d d73d 7c11 9a3e
00000120: 8850 d53d 6874 d03d ed9f 4d3e 6ec1 053e
00000130: 2e7e f13d d050 aa3d 4811 fb3d e31f ce3d
00000140: 815c a43e 4340 db3d 44a4 903e c02a b63e
00000150: 68f1 0b3e 2ca3 2d3e 8bae 793d 13ee d73e
00000160: 10f3 ea3d 82e1 e33d cab1 183e d018 d43d
00000170: bb72 853e 36b0 dd3d 54f7 fa3d e769 d23d
00000180: db94 003e fc87 773e 5e1d 293e 8f22 a43e
00000190: 6f28 c13e 5f46 1b3e 8053 3e3e d208 da3d
000001a0: 40ec a53e 504c e33e 8053 0c3e 96e5 273e
000001b0: 7153 da3d 67fb a63e a2cc 073e 306f b53e
000001c0: 1728 b33d 7da1 c13d c3aa 843e a1a0 f43d
000001d0: fc19 993e 6c43 fc3e 75f7 8c3e 1a41 233e
000001e0: 68c0 073e 01e7 933e b102 5b3e 4ac4 993e
000001f0: 0b78 1c3e 9c46 f53d 2716 8b3e 09de a53e

feature_transform.0.layers.1.bias f4 [128]
-0.013490003 0.061157823 -0.059965122 -0.011447355 -0.0496534 -0.014749438 0.02516461 -0.026166026
-0.021630667 -0.04600788 -0.051587727 -0.018443696 -0.022707522 -0.016341118 -0.029494055 0.025529277
-0.00018279662 -0.012710126 0.06084478 -0.01913985 0.0116157485 -0.00937501 0.071805574 0.040009722
-0.033129342 -0.006381578 -0.019335462 -0.088152446 0.011245824 -0.02273305 -0.02586002 0.020201676
-0.022952221 -0.04593186 -0.023019183 0.01044359 0.06480893 -0.037879102 -0.052492056 -0.024471352
-0.01897884 -6.711718e-05 0.008368207 -0.057578314 0.059133045 -0.01648239 -0.059568368 0.1267623
0.14779875 0.010274657 -0.016006647 -0.02884064 0.0050950185 0.014632239 -0.09598651 -0.04249838
-0.050042946 0.06749602 -0.0062439274 0.03411972 0.071218416 -0.016394924 0.0049275314 -0.010555151
-0.057116415 -0.021349212 -0.007949195 -0.03268836 -0.0017931385 -0.027198972 0.01919455 0.024382658
-0.028121563 -0.008130372 0.007091868 -0.017398648 -0.010496457 -0.048992187 0.0025441237 -0.023744255
0.11578715 -0.026343081 0.006223706 0.09014737 -0.09499342 0.026947912 -0.016755654 0.017331867
-0.0070984354 0.014611025 0.031854838 -0.008662037 0.025653694 -0.029368434 -0.029874992 -0.02463838
-0.0066026673 -0.050049137 -0.004024341 0.0023370816 0.009034401 -0.007010608 0.0026343109 -0.016420728
0.085594125 0.06289015 0.019919313 -0.0039919317 -0.026437692 0.112289324 -0.0038992302 -0.009522519
-0.04426198 -0.008799764 0.006638418 -0.103011586 -0.002893472 0.10555792 0.08629559 -0.012136654
0.016168665 0.03008359 -0.041191988 -0.017404998 -0.047432475 -0.0023893747 0.053662997 0.04913936
00000000: 2c05 5dbc a080 7a3d fd9d 75bd b08d 3bbc
00000010: 5d61 4bbd a0a7 71bc 0326 ce3c 225a d6bc
00000020: cc32 b1bc c272 3cbd a74d 53bd 3c17 97bc
00000030: 2005 babc cfdd 85bc 849d f1bc c622 d13c
00000040: 18ad 3fb9 223e 50bc 6038 793d 2dcb 9cbc
00000050: fb4f 3e3c a499 19bc cd0e 933d 3ce1 233d
00000060: a2b2 07bd 8e1c d1bb 6765 9ebc 4589 b4bd
00000070: 6840 383c a93a babc 65d8 d3bc fc7d a53c
00000080: 4c06 bcbc 0c23 3cbd ba92 bcbc 971b 2b3c
00000090: 8bba 843d 1e27 1bbd e901 57bd 2578 c8bc
000000a0: 8379 9bbc 43c1 8cb8 ce1a 093c 3dd7 6bbd
000000b0: 7e35 723d 1406 87bc f6fd 73bd facd 013e
000000c0: 8e58 173e 0957 283c 5f20 83bc 3543 ecbc
000000d0: 1df4 a63b 0fbc 6f3c 9394 c4bd c812 2ebd
000000e0: d5f9 4cbd 5a3b 8a3d dc99 ccbb 1fc1 0b3d
000000f0: f6da 913d a64e 86bc 2177 a13b 83ef 2cbc
00000100: e7f2 69bd 8be4 aebc 573d 02bc 3be4 05bd
00000110: be07 ebba 61d0 debc e43d 9d3c 24be c73c
00000120: 315f e6bc 4035 05bc e762 e83b 9c87 8ebc
00000130: 55f9 2bbc 08ac 48bd 50bb 263b 5083 c2bc
00000140: d021 ed3d 72cd d7bc 3bf0 cb3b 2f9f b83d
00000150: e98b c2bd dec1 dc3c 2743 89bc 8ffb 8d3c
00000160: fe99 e8bb 1563 6f3c 387a 023d 37eb 0dbc
00000170: b227 d23c 1296 f0bc 66bc f4bc 6ed6 c9bc
00000180: 305b d8bb 5300 4dbd 9ede 83bb b929 193b
00000190: 0605 143c 3eb9 e5bb 67a4 2c3b c384 86bc
000001a0: f94b af3d 8dcc 803d d42d a33c c0ce 82bb
000001b0: dc93 d8bc f2f7 e53d 3a8a 7fbb 5704 1cbc
000001c0: 0d4c 35bd e32c 10bc 1687 d93b bdf7 d2bd
000001d0: 68a0 3dbb c02e d83d bebb b03d d1d8 46bc
000001e0: 2674 843c dc71 f63c eeb8 28bd ed94 8ebc
000001f0: 8e48 42bd 0e97 1cbb bbcd 5b3d 5b46 493d

feature_transform.0.layers.1.running_mean f4 [128]
0.5261303 -0.76138157 0.3431242 -0.4725014 -0.11595529 0.36675853 -0.55747133 -0.40908143
0.61320555 0.44797656 0.6227503 0.60449076 1.3178221 -0.8232066 -0.7391062 0.073407434
-0.18936248 1.3201885 0.72313416 0.59257036 -0.06505173 -0.61778283 0.28576517 -0.47018906
-0.05213798 0.7255847 -0.43627596 -0.1792277 0.7801689 0.28102982 -0.22687308 0.5802372
-0.5744383 0.41550708 0.49251488 0.45578942 0.82288265 0.4708114 0.73545665 0.60928196
-0.26883647 -0.89922285 -0.27594268 -0.18887825 -2.1443157 0.47133902 0.27476954 1.4108725
-2.8027923 -0.067718074 0.65327865 -0.81945014 -0.3751644 0.5113679 0.17726256 -1.5401845
0.82238317 0.47369838 0.5521392 0.14247335 0.16251047 0.8231052 -0.5418929 -0.3884079
-0.1570159 -0.21386072 0.27797168 -0.1749996 0.5596484 0.3631225 0.63530767 0.42762417
0.14951713 0.5484507 0.75768083 0.3191872 -0.71740276 -0.54532915 0.43397054 0.120783426
1.8890651 0.7773667 -0.58441573 -0.90362036 -0.5847281 -0.007711515 -0.45050177 1.2938735
0.14647807 -0.36654064 -0.0048389146 0.5619651 0.028489036 0.3972453 -0.8618908 -0.5146555
0.41077673 1.2894459 0.4913845 -0.20546682 0.12660363 -0.09372002 0.7846148 0.45879722
-0.14218271 0.68581223 0.5705335 -0.61344206 0.11615181 0.43997672 0.5636089 1.4330359
-1.1485732 0.540636 0.6116716 -0.243289 0.08877187 3.7127485 0.080399394 -0.1228621
0.42987925 -0.21151708 -0.97441703 -1.2501355 -0.089242 0.41184625 -0.08647296 0.9559031
00000000: 7ab0 063f e7e9 42bf faad af3e b4eb f1be
00000010: f879 edbd c6c7 bb3e 71b6 0ebf 1f73 d1be
00000020: 0afb 1c3f 2f5d e53e 906c 1f3f e8bf 1a3f
00000030: 65ae a83f abbd 52bf 1036 3dbf a356 963d
00000040: 3de8 41be f0fb a83f 521f 393f b1b2 173f
00000050: d739 85bd 0427 1ebf d04f 923e 9fbc f0be
00000060: a28e 55bd ebbf 393f 905f dfbe 7787 37be
00000070: 26b9 473f 24e3 8f3e 6b51 68be 6d8a 143f
00000080: 630e 13bf 58bd d43e e92a fc3e 3b5d e93e
00000090: 70a8 523f 310e f13e e346 3c3f e7f9 1b3f
000000a0: efa4 89be 7833 66bf 5c48 8dbe 4d69 41be
000000b0: 783c 09c0 5953 f13e 98ae 8c3e 7897 b43f
000000c0: f360 33c0 c6af 8abd 453d 273f 7cc7 51bf
000000d0: 8c15 c0be 02e9 023f 5184 353e c424 c5bf
000000e0: b487 523f 9888 f23e ff58 0d3f 89e4 113e
000000f0: 2569 263e 06b7 523f 7eb9 0abf 66dd c6be
00000100: c7c8 20be 4efe 5abe 4e52 8e3e 1833 33be
00000110: 1e45 0f3f 31eb b93e 86a3 223f 8ef1 da3e
00000120: 051b 193e 4467 0c3f 5ff7 413f 816c a33e
00000130: b5a7 37bf b19a 0bbf 6331 de3e 4d5d f73d
00000140: e3cc f13f 8101 473f 459c 15bf aa53 67bf
00000150: beb0 15bf e0b0 fcbb 2ba8 e6be a69d a53f
00000160: 59fe 153e 37ab bbbe c28f 9ebb f2dc 0f3f
00000170: d761 e93c bc63 cb3e e0a4 5cbf 76c0 03bf
00000180: 5451 d23e 900c a53f c096 fb3e e565 52be
00000190: 62a4 013e 48f0 bfbd 84dc 483f 78e7 ea3e
000001a0: 5898 11be 6491 2f3f 7c0e 123f 8a0a 1dbf
000001b0: 00e1 ed3d a144 e13e ac48 103f b86d b73f
000001c0: 7204 93bf 1f67 0a3f 8396 1c3f c020 79be
000001d0: 07ce b53d ac9d 6d40 70a8 a43d 209f fbbd
000001e0: 2219 dc3e ef97 58be 6573 79bf 7104 a0bf
000001f0: 82c4 b6bd 83dd d23e bc18 b1bd 11b6 743f

feature_transform.0.layers.1.running_var f4 [128]
0.43241143 0.82183045 0.22990213 0.55752486 1.3383523 0.10706827 0.16169237 0.81862575
0.20047842 0.30319658 0.27195197 0.20403528 1.5888767 0.265376 0.3216767 0.36233282
0.13803527 1.736354 1.1344328 0.27245116 1.4007431 0.25134164 1.5754323 0.5567658
0.1544346 0.73325294 0.24861972 1.1416419 0.5679919 0.27712026 0.14955242 0.33178967
0.42372447 0.6963892 0.17551772 1.293539 1.7537116 0.09642969 0.30605793 0.2344754
0.25290757 1.138843 2.1770196 0.13454464 7.422833 0.2115052 0.6967358 1.9170997
4.8487167 0.13725822 0.29648507 0.5638818 0.27868077 0.21187389 0.2758816 1.1650819
0.52393997 1.9848138 0.15647355 0.2233498 0.5183042 0.30439386 0.40184337 1.8979374
0.4070759 0.38050914 0.083264396 0.57012326 0.20835237 0.70771325 0.32404447 0.8460807
0.055539668 0.16450603 1.0176316 0.12630445 0.253977 0.47242454 0.114843994 0.030774433
1.8441693 0.3503651 0.8979176 2.0890431 0.46105364 0.13093492 0.31649277 1.5406715
0.09425629 0.2647107 0.20157847 0.17375313 0.5677082 0.15690772 0.5888368 0.16395363
0.11839473 1.2670047 0.30468702 1.0503608 0.9102792 0.23457459 0.4328942 0.29515392
1.6119212 2.2577128 0.23376784 0.5686153 0.042699438 2.281716 0.18534645 1.3607646
0.7920753 0.19886184 1.0637355 0.25704345 0.6941778 4.076642 0.7810908 0.65204155
0.14679624 1.0429661 0.5704444 0.8313934 0.37263775 0.13044097 0.7209632 1.1224802
00000000: 0865 dd3e 7b63 523f 776b 6b3e f3b9 0e3f
00000010: 214f ab3f 9c46 db3d af92 253e 7591 513f
00000020: 374a 4d3e 953c 9b3e 4a3d 8b3e a0ee 503e
00000030: 5060 cb3f 5ddf 873e cfb2 a43e b083 b93e
00000040: 1e59 0d3e d940 de3f 1835 913f b87e 8b3e
00000050: 8d4b b33f daaf 803e c4a7 c93f 3488 0e3f
00000060: 1b24 1e3e 77b6 3b3f 2b96 7e3e 5221 923f
00000070: eb67 113f b5e2 8d3e 4524 193e 56e0 a93e
00000080: 6af2 d83e 9046 323f ebba 333e b092 a53f
00000090: 9f79 e03f ee7c c53d a0b3 9c3e 521a 703e
000000a0: 1a7d 813e 9cc5 913f 4a54 0b40 12c6 093e
000000b0: d987 ed40 d294 583e 475d 323f 8663 f53f
000000c0: b028 9b40 6b8d 0c3e e4cc 973e 8f5a 103f
000000d0: 3faf 8e3e 78f5 583e 5a40 8d3e 6721 953f
000000e0: ee20 063f 610e fe3f 9a3a 203e cfb5 643e
000000f0: 96af 043f 83d9 9b3e 6abe cd3e 9def f23f
00000100: 416c d03e 18d2 c23e 8686 aa3d 99f3 113f
00000110: 535a 553e b22c 353f 28e9 a53e bf98 583f
00000120: 907d 633d 4574 283e c141 823f f455 013e
00000130: 4609 823e a1e1 f13e 5433 eb3d aa1a fc3c
00000140: bd0d ec3f 0e63 b33e eedd 653f e2b2 0540
00000150: 390f ec3e ce13 063e 570b a23e b934 c53f
00000160: 7109 c13d 2988 873e 966a 4e3e 57ec 313e
00000170: 5355 113f 6bac 203e 02be 163f 76e3 273e
00000180: f078 f23d 362d a23f f0ff 9b3e 3972 863f
00000190: 0f08 693f 5234 703e 4fa4 dd3e 6a1e 973e
000001a0: 6f53 ce3f 5e7e 1040 d660 6f3e c690 113f
000001b0: 9be5 2e3d a307 1240 76cb 3d3e 892d ae3f
000001c0: 72c5 4a3f 70a2 4b3e 7c28 883f 339b 833e
000001d0: a3b5 313f da73 8240 91f5 473f 32ec 263f
000001e0: c151 163e ea7f 853f a508 123f 33d6 543f
000001f0: 60ca be3e 5192 053e 0b91 383f 6ead 8f3f

feature_transform.1.weight_units.1.weight f4 [128]
0.120241 0.13268839 0.09516514 0.10589027 0.11784949 0.1195623 0.12078335 0.11616493
0.11977779 0.10777049 0.11592843 0.118583955 0.11197008 0.10620502 0.11920273 0.11457383
0.117598295 0.13347459 0.12205438 0.11666988 0.12550308 0.11700305 0.118811585 0.10422729
0.11855082 0.12124815 0.12625287 0.11340736 0.12486978 0.13682547 0.11758841 0.12532663
0.15261649 0.12150016 0.11133573 0.15144739 0.11812975 0.1171163 0.12019468 0.11422826
0.1176996 0.18825006 0.11400439 0.11835003 0.12672827 0.13744967 0.11797407 0.11321099
0.11122076 0.10784737 0.113666795 0.11850712 0.11995008 0.11792088 0.11383563 0.1146038
0.14001496 0.11653455 0.12008107 0.1190011 0.118248336 0.11864037 0.1175647 0.12134473
0.11997844 0.11469247 0.10611633 0.118701115 0.12271445 0.11617185 0.11534376 0.120033786
0.12030922 0.12070765 0.11084468 0.13946356 0.10023564 0.11857788 0.11957239 0.12298523
0.10636731 0.121652864 0.1191719 0.12188972 0.17430659 0.11121981 0.12344514 0.110626526
0.114462115 0.11778286 0.11636088 0.115940936 0.10840778 0.11833742 0.119223595 0.119704485
0.11685309 0.11877392 0.116058916 0.11464132 0.12149107 0.1193694 0.11706209 0.13523947
0.11183992 0.11712914 0.11859433 0.10699458 0.120386146 0.11733355 0.11723101 0.11912914
0.11599945 0.10436462 0.14889953 0.1095202 0.10683073 0.119024895 0.114046946 0.10665001
0.10896655 0.11721398 0.13232853 0.12249833 0.106220864 0.11971712 0.119549975 0.11266132
00000000: ea40 f63d 77df 073e f1e5 c23d ffdc d83d
00000010: 135b f13d 14dd f43d 435d f73d e1e7 ed3d
00000020: 0f4e f53d c6b6 dc3d e26b ed3d 25dc f23d
00000030: 9250 e53d 0482 d93d 9020 f43d afa5 ea3d
00000040: 60d7 f03d 90ad 083e a6f7 f93d 9ef0 ee3d
00000050: e183 003e 4c9f ef3d 7d53 f33d 1e75 d53d
00000060: c6ca f23d f350 f83d 6f48 013e 1e42 e83d
00000070: babb ff3d fa1b 0c3e 31d2 f03d a055 003e
00000080: 7f47 1c3e 13d5 f83d fd03 e43d 0615 1b3e
00000090: 03ee f13d acda ef3d a128 f63d 82f0 e93d
000000a0: 7d0c f13d a0c4 403e 227b e93d 8061 f23d
000000b0: 0ec5 013e 9bbf 0c3e 649c f13d 2adb e73d
000000c0: b6c7 e33d 15df dc3d 23ca e83d dcb3 f23d
000000d0: 63a8 f53d 8180 f13d a822 e93d 66b5 ea3d
000000e0: 1560 0f3e aba9 ee3d 10ed f53d d9b6 f33d
000000f0: 2f2c f23d b9f9 f23d c3c5 f03d 9683 f83d
00000100: 42b7 f53d e3e3 ea3d 8553 d93d 9219 f33d
00000110: b751 fb3d 82eb ed3d 5939 ec3d 46d4 f53d
00000120: ae64 f63d 9335 f73d 8902 e33d 89cf 0e3e
00000130: 5848 cd3d f6d8 f23d 5fe2 f43d aedf fb3d
00000140: 1bd7 d93d 2325 f93d 6610 f43d 51a1 f93d
00000150: 6d7d 323e 36c7 e33d ced0 fc3d 2990 e23d
00000160: 1d6b ea3d 2438 f13d 9d4e ee3d 7172 ed3d
00000170: e604 de3d e45a f23d 802b f43d a027 f53d
00000180: ac50 ef3d be3f f33d 4cb0 ed3d 12c9 ea3d
00000190: 4fd0 f83d f277 f43d 40be ef3d 377c 0a3e
000001a0: 540c e53d 67e1 ef3d 96e1 f23d f91f db3d
000001b0: 038d f63d 924c f03d d016 f03d fbf9 f33d
000001c0: 1f91 ed3d 1ebd d53d 1e79 183e 204c e03d
000001d0: 12ca da3d 53c3 f33d 7291 e93d 526b da3d
000001e0: db29 df3d e20d f03d 2181 073e 68e0 fa3d
000001f0: 538a d93d 402e f53d 9ed6 f43d faba e63d
